shallow_enc_16_2000.pth (torch_old, 60239 bytes, 8 tensors)

encoder.0.weight f4 [5, 3, 15, 15]
0.023889858 -0.0007909708 0.005162051 -0.0008696355 0.033005353 -0.023995189 0.033675723 -0.023052603
-0.0064610243 -0.007630015 0.036768984 0.035598755 -0.011454139 0.037302136 -0.010633949 -0.007588018
-0.01113478 0.009252404 -0.0061778887 -0.0041281176 0.002222196 -0.015748423 -0.0039517125 -0.025777627
0.020028135 0.029370626 0.035880204 0.026057905 0.034237023 0.026565496 -0.00039476855 0.02605694
0.007518455 -0.0039021326 -0.03506618 -0.0036179102 0.030133333 -0.01071578 0.039999943 -0.027699402
-0.00039626544 -0.0068612015 0.0012520535 0.0052170274 -0.0007970178 0.014519153 0.023150902 0.021558136
-0.02578627 0.025956322 -0.034602243 0.031607218 0.019929709 0.018923253 -0.001527738 0.0074506598
-0.026659867 0.037059322 -0.021874055 0.03562088 -0.018310223 0.028885772 -0.008611855 -0.004581549
-0.005264344 -0.015183253 0.0054672603 -0.022888253 -0.0013442646 0.02232406 -0.008212033 0.031416282
0.011209826 -0.02491602 0.0067125177 -0.029338581 0.018768482 0.022831988 0.015259908 -0.0014221189
0.02268065 0.032141276 0.004895383 0.03601221 -0.009207947 -0.0006213637 0.017011382 -0.010847783
0.016436968 0.03751224 -0.005988974 0.025427718 0.0006673822 0.0056632943 0.012743479 -0.027966825
-0.014381582 -0.014231304 0.0035966954 0.02709632 -0.012724052 0.024389643 0.039145086 0.010632627
0.009205978 0.012869285 0.039027527 0.014670968 -0.014647207 -0.011004679 0.031161675 -0.008583704
-0.005398204 0.013870058 0.010486601 0.029622046 0.02301011 -0.014230559 0.01692484 0.0032797712
0.006392104 -0.002022364 -0.018134724 -0.013431054 0.027887922 -0.011479619 -0.018992608 -0.01616024
0.00021052033 0.039553408 -0.0056499853 0.03993765 -0.005138202 0.033651732 -0.010804834 -0.014176393
-0.009878775 -0.02517461 0.015699547 -0.030376587 0.03622235 0.013777698 0.01750594 0.032414027
0.03835703 -0.011126037 -0.02492085 0.021350916 0.017127834 -0.018049994 0.009914204 -0.015764834
-0.01859392 -0.021999853 0.030246831 0.0012003264 -0.03286757 0.030066812 0.022519095 0.040054034
0.03898006 0.016374435 0.01344105 0.010962241 0.0041408623 0.010665955 0.010799877 0.0011697982
-0.023600234 -0.033673935 0.0047751586 -0.019035297 -0.019272227 0.020129114 0.029163552 -0.0011515094
0.00713326 0.031785198 -0.035564646 -0.009076802 0.023660341 -0.021996947 -0.022043863 -0.012909803
0.0078430595 -0.016980197 -0.025246646 -0.020085437 0.026507953 -0.03373897 0.034692172 0.019516125
0.0054107164 -0.0036959064 0.017601324 -0.018548895 -0.012184448 -0.0350655 0.017704703 0.022800604
-0.015291663 0.016722925 0.014590167 0.022043752 0.0018385975 0.012755703 0.02002383 0.025299698
0.01617686 -0.024646472 -0.0109191295 0.005049933 0.018599426 0.023457082 0.008009569 -0.03435147
0.011859153 -0.002254247 0.007265864 0.002871786 0.02007295 -0.007651526 0.0104356315 0.0064765266
-0.003386634 -0.022105813 -0.04670551 -0.037511937 -0.035919067 -0.021886304 -0.035797935 -0.034037855
-0.0020168158 0.015574761 -0.05231751 0.011246279 0.001367449 -0.050653763 -0.0013661025 0.009532708
-0.058389794 0.0019547748 -0.045250982 -0.010431772 -0.03139374 -0.0052775186 -0.053078666 0.016789483
-0.037848607 -0.012761769 -0.016329952 -0.012564093 -0.011505867 -0.028532563 -0.041146435 -0.052267462
00000000: aab4 c33c 2759 4fba 6c26 a93b 40f8 63ba
00000010: 9f30 073d 8f91 c4bc 8eef 093d d0d8 bcbc
00000020: 00b7 d3bb 3405 fabb 139b 163d 00d0 113d
00000030: 24aa 3bbc 20ca 183d 043a 2ebc e9a4 f8bb
00000040: a76e 36bc 6597 173c e36f cabb 2945 87bb
00000050: 43a2 113b d602 81bc 5e7d 81bb 9a2b d3bc
00000060: 0b12 a43c ab9a f03c 1ff7 123d 6377 d53c
00000070: 1f3c 0c3d e29f d93c f0f8 ceb9 5d75 d53c
00000080: 5f5d f63b ecba 7fbb 8ea1 0fbd 761a 6dbb
00000090: 2eda f63c 3d91 2fbc fbd6 233d dbe9 e2bc
000000a0: d9c1 cfb9 eed3 e0bb f21b a43a 99f3 aa3b
000000b0: f6ee 50ba bee1 6d3c f6a6 bd3c b09a b03c
000000c0: ba3d d3bc 5aa2 d43c 15bb 0dbd 9276 013d
000000d0: a143 a33c f004 9b3c 613e c8ba aa24 f43b
000000e0: cb65 dabc 84cb 173d 3831 b3bc 33e7 113d
000000f0: 52ff 95bc dba1 ec3c bd18 0dbc d220 96bb
00000100: 8580 acbb 2ec3 78bc b426 b33b 2580 bbbc
00000110: 0932 b0ba f2e0 b63c c38b 06bc 5cae 003d
00000120: 6ba9 373c ae1c ccbc aef4 db3b 7757 f0bc
00000130: 5cc0 993c 260a bb3c b104 7a3c 6466 baba
00000140: c5cc b93c 92a6 033d 7369 a03b 8a81 133d
00000150: eedc 16bc 03e3 22ba 745b 8b3c e6ba 31bc
00000160: d2a6 863c 6fa6 193d 283f c4bb ca4d d03c
00000170: 43f3 2e3a 2893 b93b 06ca 503c af1a e5bc
00000180: baa0 6bbc 6a2a 69bc 89b6 6b3b 1af9 dd3c
00000190: 8b78 50bc cacc c73c 9956 203d 7834 2e3c
000001a0: acd4 163c b2d9 523c 54db 1f3d 805e 703c
000001b0: d7fa 6fbc f84c 34bc c546 ff3c aaa2 0cbc
000001c0: 6be3 b0bb 3d3f 633c fecf 2b3c efa9 f23c
000001d0: b37f bc3c 4a27 69bc f6a5 8a3c 6ef1 563b
000001e0: db74 d13b a389 04bb 468f 94bc ec0d 5cbc
000001f0: 3675 e43c 0315 3cbc 6396 9bbc 7b62 84bc
00000200: 1fbf 5c39 c102 223d 8323 b9bb a995 233d
00000210: 5d5e a8bb 66d6 093d c206 31bc 1a44 68bc
00000220: 96da 21bc fc3a cebc 569c 803c 52d8 f8bc
00000230: e35d 143d dbbb 613c 9e68 8f3c 92c4 043d
00000240: 431c 1d3d fb49 36bc cf26 ccbc 1ee8 ae3c
00000250: ac4f 8c3c 95dd 93bc 2f6f 223c 4125 81bc
00000260: 4752 98bc 0939 b4bc 34c8 f73c 4554 9d3a
00000270: 25a0 06bd ad4e f63c f779 b83c b30f 243d
00000280: 8ea9 1f3d ae23 863c da37 5c3c f99a 333c
00000290: 12b0 873b 42c0 2e3c f8f1 303c ea53 993a
000002a0: 4755 c1bc aeed 09bd ef78 9c3b e9ef 9bbc
000002b0: cae0 9dbc d0e5 a43c 67e8 ee3c 3eee 96ba
000002c0: 1fbe e93b 3231 023d 3cac 11bd deb6 14bc
000002d0: 55d3 c13c f132 b4bc 5595 b4bc a383 53bc
000002e0: 2d80 003c 0e1a 8bbc 0ed2 cebc 378a a4bc
000002f0: 3527 d93c e031 0abd 6119 0e3d 48e0 9f3c
00000300: 614c b13b 0537 72bb a730 903c daf3 97bc
00000310: 47a1 47bc d7a0 0fbd 7409 913c 55c8 ba3c
00000320: e289 7abc 84fe 883c 990b 6f3c 1995 b43c
00000330: 18fd f03a 4cfd 503c 0409 a43c 5041 cf3c
00000340: 5685 843c 66e7 c9bc 26e6 32bc e979 a53b
00000350: d35d 983c 1129 c03c 913a 033c 21b4 0cbd
00000360: e54c 423c fdbb 13bb 7c16 ee3b 9334 3c3b
00000370: 0770 a43c a7b9 fabb 36fa 2a3c 0b39 d43b
00000380: 4af2 5dbb 4017 b5bc 474e 3fbd 1ea6 19bd
00000390: df1f 13bd e84a b3bc dba0 12bd 476b 0bbd
000003a0: 8e2c 04bb 482d 7f3c e34a 56bd 5042 383c
000003b0: f93b b33a 527a 4fbd cb0e b3ba 132f 1c3c
000003c0: 232a 6fbd ae1b 003b 1859 39bd 06ea 2abc
000003d0: b996 00bd 09ef acbb 0469 59bd 198a 893c
000003e0: 2407 1bbd bd16 51bc 64c6 85bc a0d9 4dbc
000003f0: 1b83 3cbc 1fbd e9bc 2a89 28bd 6816 56bd

encoder.0.bias f4 [5]
0.07005582 -0.0045818985 0.023831595 -0.019915896 0.07026559
00000000: 6d79 8f3d c023 96bb 7a3a c33c a926 a3bc
00000010: 68e7 8f3d

encoder.2.weight f4 [8, 5, 11, 11]
-2.024934e-08 -2.4033598e-08 -2.6141779e-08 -1.1361597e-07 -1.6332778e-07 -1.5074357e-06 -2.3954929e-06 -3.3190088e-06
-4.4105627e-06 -4.3483537e-06 -4.6766086e-06 -2.5816972e-08 -3.0236738e-08 -3.2823745e-08 -1.4155617e-07 -2.0445665e-07
-1.8063134e-06 -2.8654908e-06 -3.9658744e-06 -5.2693445e-06 -5.2153564e-06 -5.609114e-06 -2.87419e-08 -3.394832e-08
-3.6936722e-08 -1.590837e-07 -2.311708e-07 -1.993562e-06 -3.172967e-06 -4.3936548e-06 -5.8267283e-06 -5.7659036e-06
-6.177287e-06 -6.760328e-08 -8.0513686e-08 -8.8375444e-08 -3.3667655e-07 -4.8019143e-07 -3.3664096e-06 -5.173782e-06
-6.993929e-06 -9.04716e-06 -8.951619e-06 -9.483292e-06 -9.613689e-08 -1.15963786e-07 -1.2875537e-07 -4.703752e-07
-6.7043027e-07 -4.3035648e-06 -6.5434856e-06 -8.74017e-06 -1.1171273e-05 -1.101216e-05 -1.1551517e-05 -8.6034703e-07
-1.0127045e-06 -1.1103242e-06 -2.8133913e-06 -3.6820134e-06 -1.4325231e-05 -1.975658e-05 -2.4689345e-05 -2.9743776e-05
-2.9314086e-05 -3.0164621e-05 -1.5256634e-06 -1.793178e-06 -1.974748e-06 -4.611573e-06 -5.9423287e-06 -2.0387726e-05
-2.742364e-05 -3.3605236e-05 -3.9754756e-05 -3.9033363e-05 -3.9782542e-05 -1.7307831e-06 -2.0434284e-06 -2.2660165e-06
-5.2239393e-06 -6.7270776e-06 -2.2396214e-05 -2.99155e-05 -3.6421003e-05 -4.280246e-05 -4.1823365e-05 -4.235504e-05
-1.5145233e-06 -1.8083333e-06 -2.0238715e-06 -4.781041e-06 -6.1879737e-06 -2.1042413e-05 -2.815772e-05 -3.4263227e-05
-4.02037e-05 -3.908026e-05 -3.940968e-05 -1.5887719e-06 -1.9043014e-06 -2.1293083e-06 -4.984126e-06 -6.400926e-06
-2.1412985e-05 -2.838801e-05 -3.4260254e-05 -3.9964973e-05 -3.862417e-05 -3.8797563e-05 -1.630263e-06 -1.9592396e-06
-2.1841247e-06 -5.062214e-06 -6.436838e-06 -2.1185795e-05 -2.7804865e-05 -3.3211087e-05 -3.8533166e-05 -3.7012083e-05
-3.7051646e-05 -8.35081e-40 1.59193e-40 5.95382e-40 -8.16095e-40 -3.50147e-40 -6.19045e-40 5.15234e-40
6.8616e-40 -1.51231e-40 -3.3139e-40 -3.29116e-40 1.911772e-39 -1.893376e-39 7.89381e-40 -3.51209e-40
-5.01997e-40 9.80685e-40 1.198291e-39 -3.50068e-40 2.54514e-40 -5.53565e-40 -4.62627e-40 1.38674e-40
-5.04089e-40 -1.52593e-40 1.30639e-40 4.66578e-40 1.82156e-40 -4.6383e-40 1.894568e-39 9.5304e-40
-6.15148e-40 -2.43243e-40 -3.9779e-40 -1.01401e-39 -1.98282e-40 -4.55058e-40 2.89475e-40 -6.07875e-40
-3.88782e-40 1.765097e-39 4.39e-43 2.46005e-40 3.64953e-40 -1.34981e-40 -6.12041e-40 2.14848e-40
-1.03053e-40 9.79747e-40 4.70698e-40 -1.78174e-39 3.4808e-40 1.95998e-40 -9.80096e-40 -3.80722e-40
-3.14987e-40 -1.226622e-39 -1.122727e-39 -2.86689e-40 -8.6194e-41 -5.64376e-40 5.1464e-40 4.50201e-40
-9.40617e-40 -4.37965e-40 9.40773e-40 7.387e-40 1.13644e-40 4.76782e-40 -3.6378e-41 -2.01522e-40
4.03993e-40 4.60184e-40 4.36572e-40 -1.886341e-39 8.88279e-40 5.0035e-40 -9.35161e-40 -1.142999e-39
-9.3125e-41 -7.45517e-40 9.612e-42 1.071915e-39 -1.896614e-39 -5.094e-41 1.212663e-39 -4.77619e-40
2.70295e-40 3.51406e-40 -4.3628e-40 2.98687e-40 -2.02975e-40 4.5165e-41 -7.4412e-41 4.9214e-40
-5.71291e-40 -7.23115e-40 -3.4119e-41 -4.6896e-41 -4.23373e-40 4.16544e-40 -2.1567e-40 -1.343638e-39
5.29712e-40 -1.52474e-40 -3.6152e-41 3.614e-40 -1.82333e-40 -6.16503e-40 1.00166e-40 3.0276e-40
4.37222e-40 -4.63949e-40 1.37149e-40 -7.45541e-40 -1.779032e-39 2.7023e-41 -1.066993e-39 1.63387e-40
1.212869e-39 -5.44061e-40 9.357527e-20 1.3851216e-19 1.3131284e-19 1.4213831e-19 1.4449742e-19 -2.8876912e-18
-3.5922618e-17 -5.5726906e-16 -7.537298e-15 -1.1018766e-14 -1.4855277e-14 5.489271e-20 -5.177731e-19 -4.337969e-19
00000000: c5f0 adb2 7172 ceb2 618e e0b2 0afd f3b3
00000010: 335f 2fb4 1953 cab5 41c2 20b6 23bc 5eb6
00000020: 72fe 93b6 13e8 91b6 c3eb 9cb6 1fc4 ddb2
00000030: a5dd 01b3 17fa 0cb3 aafe 17b4 9e88 5bb4
00000040: 7570 f2b5 c24c 40b6 9a12 85b6 53cf b0b6
00000050: 92ff aeb6 ec35 bcb6 1be4 f6b2 93ce 11b3
00000060: 5ba4 1eb3 98d0 2ab4 bf37 78b4 22c9 05b6
00000070: 28ef 54b6 356d 93b6 3783 c3b6 bc78 c1b6
00000080: 7e46 cfb6 4c2d 91b3 dee6 acb3 eac8 bdb3
00000090: 79c0 b4b4 81e6 00b5 7aea 61b6 739a adb6
000000a0: 65ad eab6 42c9 17b7 e92e 16b7 6e1a 1fb7
000000b0: d073 ceb3 c407 f9b3 0240 0ab4 e087 fcb4
000000c0: 9ef7 33b5 5767 90b6 1d90 dbb6 bfa2 12b7
000000d0: 416c 3bb7 dec0 38b7 63cd 41b7 99f2 66b5
000000e0: 43ec 87b5 7306 95b5 b2cd 3cb6 8218 77b6
000000f0: 6656 70b7 efba a5b7 f71b cfb7 4682 f9b7
00000100: 85e7 f5b7 080a fdb7 65c5 ccb5 20ad f0b5
00000110: ea85 04b6 1cbd 9ab6 3764 c7b6 4f06 abb7
00000120: d20b e6b7 59f3 0cb8 58be 26b8 c1b7 23b8
00000130: 2edc 26b8 414d e8b5 d521 09b6 de11 18b6
00000140: 4c49 afb6 28b9 e1b6 81df bbb7 0cf3 fab7
00000150: c1c2 18b8 cb86 33b8 7f6b 2fb8 61a6 31b8
00000160: a046 cbb5 dcb5 f2b5 d9d1 07b6 d46c a0b6
00000170: 4aa2 cfb6 3d84 b0b7 3e34 ecb7 dcb5 0fb8
00000180: 65a0 28b8 1cea 23b8 d24b 25b8 c93d d5b5
00000190: 4c97 ffb5 3de5 0eb6 513d a7b6 89c7 d6b6
000001a0: 09a0 b3b7 ca22 eeb7 abb2 0fb8 10a0 27b8
000001b0: 6300 22b8 91ba 22b8 69cf dab5 7b7b 03b6
000001c0: fa92 12b6 16dc a9b6 04fc d7b6 26b8 b1b7
000001d0: 7e3e e9b7 224c 0bb8 ac9e 21b8 6c3d 1bb8
000001e0: e767 1bb8 de17 0980 c4bb 0100 af7b 0600
000001f0: f1e2 0880 11d0 0380 a5bd 0680 439c 0500
00000200: bc78 0700 92a5 0180 c89b 0380 7195 0380
00000210: 3ed1 1400 f69d 1480 7998 0800 07d3 0380
00000220: 5d77 0580 c0ad 0a00 590c 0d00 d9cf 0380
00000230: 7bc5 0200 1d07 0680 9e09 0580 9182 0100
00000240: 327d 0580 5ea9 0180 2b6c 0100 a114 0500
00000250: c7fb 0100 f80c 0580 49a1 1400 b060 0a00
00000260: c8b2 0680 10a6 0280 e054 0480 a60a 0b80
00000270: bb28 0280 84f4 0480 f026 0300 829e 0680
00000280: c43b 0480 5f38 1300 3901 0000 c3ad 0200
00000290: 57f9 0300 4678 0180 1faa 0680 e956 0200
000002a0: 451f 0180 23ab 0a00 1d20 0500 c466 1380
000002b0: 4eca 0300 5d22 0200 1cac 0a80 4c25 0480
000002c0: 0e6e 0380 535b 0d80 b539 0c80 2c1f 0380
000002d0: 46f0 0080 4025 0680 9b9a 0500 fae6 0400
000002e0: 0f3e 0a80 dec4 0480 7e3e 0a00 320b 0800
000002f0: cb3c 0100 1331 0500 6865 0080 c331 0280
00000300: 2b66 0400 ce02 0500 fcc0 0400 5a8a 1480
00000310: 29ac 0900 c672 0500 d92e 0a80 3772 0c80
00000320: 9803 0180 331e 0880 cb1a 0000 10ac 0b00
00000330: fda6 1480 008e 0080 6934 0d00 6833 0580
00000340: 79f1 0200 94d3 0300 2cc0 0480 9e40 0300
00000350: d035 0280 e77d 0000 6ecf 0080 e35b 0500
00000360: 8738 0680 c0df 0780 1c5f 0080 ba82 0080
00000370: 319c 0480 2889 0400 3359 0280 84a1 0e80
00000380: 9fc4 0500 09a9 0180 c764 0080 70ef 0300
00000390: 45fc 0180 8fb6 0680 3917 0100 f94b 0300
000003a0: ccc2 0400 4d0d 0580 517e 0100 441e 0880
000003b0: 385f 1380 544b 0000 589e 0b80 75c7 0100
000003c0: fc34 0d00 9fec 0580 c8f2 dc1f bb86 2320
000003d0: df06 1b20 abce 2720 aa97 2a20 f212 55a2
000003e0: f1a9 25a4 339f 20a6 a7c7 07a8 177f 46a8
000003f0: f0cd 85a8 9b9c 811f d4d1 18a1 c408 00a1

encoder.2.bias f4 [8]
-4.9689984e-08 -1.0605071e-06 -0.0022930594 -0.0010268448 -0.003093539 0.041613802 0.23296158 0.006521139
00000000: b76a 55b3 bf56 8eb5 2747 16bb 3297 86ba
00000010: f9bc 4abb 3c73 2a3d 7b8d 6e3e 47af d53b

encoder.4.weight f4 [12, 8, 7, 7]
-1.2396386e-12 -6.912116e-12 -2.6363519e-12 -2.4495531e-12 -4.3342426e-12 -1.0441838e-11 -9.324267e-12 -5.4417803e-12
-2.7504672e-11 -1.1173361e-11 -1.0062724e-11 -1.608917e-11 -3.3126238e-11 -2.8952573e-11 -6.0722356e-12 -2.8770975e-11
-1.209761e-11 -1.0770376e-11 -1.7504225e-11 -3.4263963e-11 -2.9610748e-11 -6.560956e-11 -2.6411445e-10 -1.2775059e-10
-1.13006896e-10 -1.6350869e-10 -2.6301916e-10 -2.2681766e-10 -8.39726e-11 -3.3324302e-10 -1.6428955e-10 -1.3518055e-10
-2.0235871e-10 -3.063401e-10 -2.5752356e-10 -1.5828523e-10 -5.8761335e-10 -2.979144e-10 -2.4458238e-10 -3.5839315e-10
-5.0390186e-10 -4.1782397e-10 -2.0805105e-10 -7.406503e-10 -3.8519185e-10 -3.1905006e-10 -4.4757995e-10 -5.9426053e-10
-4.879067e-10 -5.5864e-40 9.64896e-40 6.40346e-40 8.92826e-40 6.60424e-40 1.248787e-39 -1.28511e-39
1.01947e-39 7.59533e-40 -1.348788e-39 3.42438e-40 5.08754e-40 -7.74332e-40 1.180087e-39 -6.68467e-40
-1.264477e-39 8.39e-40 1.120194e-39 1.14951e-40 9.52132e-40 9.9139e-40 -4.36866e-40 8.66531e-40
-1.574363e-39 -1.582726e-39 -1.358661e-39 -1.681377e-39 -5.68326e-40 1.142766e-39 3.29972e-40 -1.005079e-39
-1.00739e-39 9.79568e-40 -1.34981e-40 1.001247e-39 -8.45469e-40 1.623334e-39 -1.465163e-39 1.00849e-39
-7.44601e-40 -3.95992e-40 9.40919e-40 -1.474036e-39 -2.7272e-41 4.58962e-40 1.427203e-39 -1.411542e-39
-1.416602e-39 1.226094e-39 -0.0033795482 -0.0034105931 -0.00341933 -0.003406266 -0.0033872486 -0.003321766
-0.0033108979 -0.00340865 -0.0034389494 -0.0034474758 -0.0034348657 -0.0034160777 -0.0033521322 -0.003341156
-0.0034223916 -0.003452038 -0.0034603411 -0.0034479857 -0.0034294296 -0.003366512 -0.0033555026 -0.0034226086
-0.0034506968 -0.0034584939 -0.00344648 -0.0034288256 -0.0033686848 -0.003358003 -0.0034188589 -0.0034462397
-0.0034537571 -0.0034419934 -0.0034249164 -0.0033660654 -0.0033560442 -0.0033976128 -0.0034249176 -0.003432377
-0.00342078 -0.0034043465 -0.0033462783 -0.0033369863 -0.0033832528 -0.0034102679 -0.003417624 -0.0034062143
-0.0033903662 -0.0033329595 -0.0033245077 -0.0006273055 -0.0006894526 -0.0006729201 0.0007305286 -0.00035849836
-0.0009833392 -0.00022511042 -0.000757572 -0.0029539207 -0.00073031295 -0.00073079544 -0.0015912856 -0.00033431995
-0.0013589114 -0.0008709039 -0.00087592733 0.0009998521 -0.00039700084 -0.00056219223 -0.00025084655 -0.00012740101
-0.0004508225 -0.00025429003 -0.00046029087 -0.00016998341 0.0004131469 4.9880735e-05 9.709424e-05 -0.0003753682
-0.0002150673 0.0006738322 0.0005648071 7.6290016e-05 0.00036117234 0.0018926194 -1.015796e-05 4.40916e-05
-0.00011259009 0.00013734486 -0.00093117566 0.00010472788 0.00043973373 -0.00041420682 -9.30959e-07 0.0017087322
0.00028765426 0.00042989803 0.00052592927 0.00046891996 0.04130552 -0.020502998 0.0376836 -0.017812213
0.006168828 0.026563492 -0.026042923 -0.020960959 -0.023188382 -0.020000065 -0.039156668 0.0037302831
0.00589852 -0.032640476 -0.03129524 -0.059923697 0.026047466 -0.046346735 -0.02187457 -0.020986201
-0.036958124 0.033170037 -0.0009375097 0.064993955 0.0054145516 0.06946431 0.0099176355 0.008087272
0.012464445 0.014196692 0.05848728 0.08035953 0.05955093 0.044810776 0.02225804 -0.024081659
0.05250983 0.0042988737 0.06423762 0.01251162 0.05470522 0.017815774 -0.026680768 0.02089376
0.05594205 0.031111633 -0.019912831 0.035834342 -0.035024613 -0.012432522 0.010772231 0.047570407
0.00047733827 -0.021881364 0.0059966594 0.02931444 0.034329854 0.022256846 0.01896892 -0.0063680043
00000000: b076 aeab ce32 f3ac 4b84 39ac 3a5f 2cac
00000010: 637f 98ac dcb1 37ad c408 24ad 3377 bfac
00000020: 04ef f1ad 5890 44ad 7b06 31ad 9785 8dad
00000030: d4b0 11ae 66ab fead d6a5 d5ac 7a12 fdad
00000040: cbd2 54ad 7679 3dad 03f8 99ad cbb1 16ae
00000050: bd3a 02ae e646 90ae ce32 91af 9876 0caf
00000060: 3a81 f8ae 9bc7 33af a898 90af 7f63 79af
00000070: 5fa8 b8ae c933 b7af 66a3 34af f1a1 14af
00000080: ea7e 5eaf 8969 a8af 3893 8daf 5509 2eaf
00000090: 9d85 21b0 b9c7 a3af e975 86af 5a07 c5af
000000a0: f182 0ab0 7fb3 e5af 2ac1 64af a296 4bb0
000000b0: efc2 d3af 4e66 afaf 470f f6af 5e59 23b0
000000c0: 621d 06b0 4315 0680 bd81 0a00 06f9 0600
000000d0: d6b8 0900 fe30 0700 1c99 0d00 5dfe 0d80
000000e0: de19 0b00 4545 0800 dfaf 0e80 94ba 0300
000000f0: 338a 0500 866e 0880 9ad9 0c00 6a47 0780
00000100: d9c4 0d80 ca22 0900 a532 0c00 7040 0100
00000110: 285e 0a00 98cb 0a00 cec1 0480 896f 0900
00000120: af24 1180 ff3b 1180 65cb 0e80 ff4e 1280
00000130: 4330 0680 9171 0c00 d497 0300 c0f1 0a80
00000140: 32f8 0a80 a3aa 0a00 4678 0180 12e7 0a00
00000150: d334 0980 32ad 1100 47f4 0f80 43fb 0a00
00000160: a51b 0880 dd4f 0480 e63e 0a00 030d 1080
00000170: 064c 0080 66ff 0400 768a 0f00 ce5e 0f80
00000180: e96c 0f80 da59 0d00 697b 5dbb 4284 5fbb
00000190: d716 60bb a93b 5fbb 9afc 5dbb fcb1 59bb
000001a0: a6fb 58bb a863 5fbb ff5f 61bb 0cef 61bb
000001b0: 7c1b 61bb 46e0 5fbb 72af 5bbb 4cf7 5abb
000001c0: 344a 60bb 963b 62bb e4c6 62bb 9af7 61bb
000001d0: 48c0 60bb b3a0 5cbb fee7 5bbb d84d 60bb
000001e0: 1625 62bb e6a7 62bb 57de 61bb 26b6 60bb
000001f0: 27c5 5cbb f111 5cbb ef0e 60bb 4fda 61bb
00000200: 6e58 62bb 1193 61bb 9074 60bb 3599 5cbb
00000210: 14f1 5bbb 7caa 5ebb 9574 60bb bbf1 60bb
00000220: 2a2f 60bb 751b 5fbb 3c4d 5bbb 57b1 5abb
00000230: 90b9 5dbb cd7e 5fbb 37fa 5fbb cb3a 5fbb
00000240: e830 5ebb c86d 5abb fcdf 59bb c271 24ba
00000250: 61bc 34ba e766 30ba f280 3f3a d6f4 bbb9
00000260: 63e3 80ba 9e0b 6cb9 cc97 46ba 9196 41bb
00000270: 7972 3fba da92 3fba af92 d0ba aa47 afb9
00000280: 801d b2ba 5f4d 64ba 7d9e 65ba 780d 833a
00000290: 8d24 d0b9 1560 13ba 0e84 83b9 f396 05b9
000002a0: 5f5c ecb9 3b52 85b9 3253 f1b9 933d 32b9
000002b0: a39b d839 0837 5138 139f cb38 11cd c4b9
000002c0: b083 61b9 1da4 303a 900f 143a e4fd 9f38
000002d0: bb5b bd39 c511 f83a 1b6c 2ab7 ffee 3838
000002e0: 581e ecb8 3b04 1039 241a 74ba 5aa1 db38
000002f0: 108c e639 e629 d9b9 04e7 79b5 8af7 df3a
00000300: 4dd0 9639 f063 e139 84de 093a 5fd9 f539
00000310: fa2f 293d e7f5 a7bc 1e5a 1a3d ebea 91bc
00000320: e123 ca3b ae9b d93c f857 d5bc 51b6 abbc
00000330: 90f5 bdbc 2dd7 a3bc be62 20bd c477 743b
00000340: 5f48 c13b 05b2 05bd 702f 00bd 8d72 75bd
00000350: 7f61 d53c 13d6 3dbd 4c32 b3bc 41eb abbc
00000360: 6761 17bd 4edd 073d 36c3 75ba 8d1b 853d
00000370: 8d6c b13b 4e43 8e3d 947d 223c 7a80 043c
00000380: ac37 4c3c 3e99 683c 5c90 6f3d 8a93 a43d
00000390: adeb 733d 818b 373d 7e56 b63c e646 c5bc
000003a0: 8c14 573d 91dd 8c3b 038f 833d 8afd 4c3c
000003b0: 9512 603d 63f2 913c a091 dabc 6429 ab3c
000003c0: 7e23 653d d3dd fe3c 3c20 a3bc 08c7 123d
000003d0: f875 0fbd c7b1 4bbc 037e 303c 30d9 423d
000003e0: 4243 fa39 8c40 b3bc a07f c43b d624 f03c
000003f0: 769d 0c3d fd53 b63c b564 9b3c b1aa d0bb

encoder.4.bias f4 [12]
-0.027950246 0.13296184 -0.00010930161 0.014597535 0.25692078 -0.28856462 -0.0033415032 0.062759414
0.088870615 -0.042761642 0.021869056 0.103677474
00000000: eaf7 e4bc 2627 083e db38 e5b8 802a 6f3c
00000010: 1f8b 833e bebe 93be 1ffd 5abb 0288 803d
00000020: cc01 b63d d526 2fbd bc26 b33c db54 d43d

encoder.6.weight f4 [16, 12, 3, 3]
-0.0078124856 -0.14433895 0.020048575 -0.044028524 -0.008215187 0.11004849 0.1190786 -0.031999987
-0.021881405 0.039814964 -0.10048972 0.032256927 0.04893208 0.016837435 0.12764633 -0.020257516
-0.036168378 -0.06466233 0.0008054098 0.0008543385 0.0007334724 0.0007779571 0.00086587475 0.00076936453
0.0007061079 0.0008275516 0.0007602844 0.00046652113 -0.007865488 0.045843225 0.036415197 0.15553136
0.053117882 0.044056963 -0.013358946 0.08055426 0.008298284 -0.063590825 0.006981787 -0.047511734
-0.019622585 0.061428804 0.003821848 0.07775633 -0.026580868 -0.030747524 0.033195052 0.06473882
-0.040472995 -0.039235525 -0.005433521 0.037930187 -0.03290474 -0.02652746 -0.009728476 -0.055920724
0.012844978 -0.015912049 -0.10072709 0.090260096 -0.029375948 -0.045816507 -0.10996707 -0.028221156
-0.034751795 -0.01532842 0.021981057 -0.08206749 0.048945893 -0.086583495 -0.051886365 -0.0802712
-0.013092845 0.019702723 -0.03501029 0.028074538 -0.0018582444 0.06724071 -0.0077797174 0.03026308
-0.01407061 -0.0047655767 0.048860103 0.07014343 0.03122987 0.002472703 0.056453366 -0.03460006
-0.081817515 0.011741072 -0.03602465 0.025957113 0.02063245 0.06770151 -0.0275301 -0.08625662
0.010394247 -0.03178303 -0.08269582 -0.06691195 -0.017168563 -0.015527293 -0.0619204 0.023859637
-0.03768518 -0.011749156 -0.019331178 0.037487023 -0.019685898 -0.030057624 0.026009593 0.051084436
0.015671445 -0.049275123 0.03642203 -0.037815437 -0.012285565 -0.03132302 0.009452246 -0.03810691
0.0062230155 0.079012804 -0.1465107 0.034195643 0.022500962 0.020575324 0.00087990996 0.0004708689
0.00034784846 0.0011133295 0.0006588727 0.00049526384 0.0012342097 0.0007775363 0.0005984659 0.0052171894
-0.04565504 0.008527022 0.0035476878 -0.046339016 -0.009177639 0.06004322 -0.016531888 0.028317204
-0.030415189 0.015489209 -0.013332533 0.020009562 -0.027226608 -0.0007879749 0.018635174 -0.056936022
-0.010236311 -0.011254547 -0.0030663114 0.033579737 0.05684979 -0.06722724 -0.026870357 0.069784686
0.042965025 -0.011881173 -0.010653386 -0.06690502 -0.028343527 -0.10161894 0.017528737 0.12238242
-0.08279552 0.0009929023 -0.04234832 0.076350115 0.04820786 -0.020953612 0.09080806 -0.034462024
0.07644292 0.020901496 0.07701644 -0.100108236 0.015223576 -0.028436596 -0.08575394 -0.016495697
0.06082383 -0.025602702 0.012716265 0.01647958 0.05745411 -0.052861243 0.027681895 -0.06127525
0.053028837 0.09346214 -0.11440351 0.030754749 0.090866864 0.015114582 -0.030364603 -0.024491094
-0.07579874 -0.009308606 0.063209616 -0.032254074 -0.12445528 -0.03784235 0.05484149 0.017275155
0.047549635 -0.07011284 0.043753345 0.041041236 0.009286429 0.038748115 -0.09011423 0.06478376
-0.013513866 -0.021639423 0.0406898 0.158595 0.13239217 0.046269476 -0.07894623 -0.0339285
-0.014854682 -0.0910488 -0.045732263 -0.025604608 0.0021699702 0.13664956 0.05681803 -0.05833012
-0.0058554104 -0.030842451 -0.00078901084 -0.0008680464 -0.000626721 -0.00096950226 -0.0010163306 -0.00075444917
-0.00083928887 -0.00086265383 -0.0005247173 -0.023477204 0.036345325 -0.010835269 -0.01736451 -0.004953737
0.0118508395 -0.061028015 -0.020073626 0.04897437 -0.05663474 0.0063678003 -0.02213012 -0.03787739
00000000: e1ff ffbb 97cd 13be e93c a43c 4157 34bd
00000010: fe98 06bc 1a61 e13d 7bdf f33d 6b12 03bd
00000020: a240 b3bc 0415 233d 8ecd cdbd d71f 043d
00000030: 016d 483d a9ee 893c b8b5 023e 17f3 a5bc
00000040: 4b25 14bd af6d 84bd 2322 533a b0f5 5f3a
00000050: 8046 403a d1ef 4b3a dffb 623a 2eaf 493a
00000060: 191a 393a 0cf0 583a d34d 473a 6897 f439
00000070: 3fde 00bc 1bc6 3b3d 1a28 153d 9d43 1f3e
00000080: 2392 593d 1375 343d 7bdf 5abc a2f9 a43d
00000090: 87f5 073c e83b 82bd 79c7 e43b aa9b 42bd
000000a0: 8bbf a0bc c59c 7b3d f877 7a3b b63e 9f3d
000000b0: 1fc0 d9bc 3be2 fbbc 89f7 073d c995 843d
000000c0: 03c7 25bd 6eb5 20bd ad0b b2bb af5c 1b3d
000000d0: 1fc7 06bd 1e50 d9bc 3064 1fbc 210d 65bd
000000e0: be73 523c fc59 82bc 014a cebd 49da b83d
000000f0: d4a5 f0bc 17aa 3bbd 6a36 e1bd 0e30 e7bc
00000100: e657 0ebd 0e24 7bbc 9e11 b43c 0013 a8bd
00000110: 7d7b 483d b052 b1bd cc86 54bd 3a65 a4bd
00000120: 5f83 56bc 9b67 a13c f366 0fbd 93fc e53c
00000130: 5690 f3ba 7fb5 893d 00ed febb 47ea f73c
00000140: 6a88 66bc 8e28 9cbb 8821 483d 5ca7 8f3d
00000150: c9d5 ff3c 130d 223b a53b 673d cbb8 0dbd
00000160: f18f a7bd a05d 403c 958e 13bd 03a4 d43c
00000170: 6205 a93c 17a7 8a3d ce86 e1bc 50a7 b0bd
00000180: a24c 2a3c ec2e 02bd 6d5c a9bd 2209 89bd
00000190: 16a5 8cbc 3066 7ebc 3fa0 7dbd 4975 c33c
000001a0: c65b 1abd 887f 40bc 6b5c 9ebc fe8b 193d
000001b0: 5244 a1bc 683b f6bc 1212 d53c ea3d 513d
000001c0: 6761 803c b6d4 49bd 442f 153d 5ce4 1abd
000001d0: 6549 49bc 914c 00bd 98dd 1a3c fe15 1cbd
000001e0: 70ea cb3b 77d1 a13d e706 16be bb10 0c3d
000001f0: f053 b83c 958d a83c c2a9 663a f4de f639
00000200: 6e5f b639 24ed 913a 33b8 2c3a 98d4 013a
00000210: 35c5 a13a 94d3 4b3a 5ee2 1c3a f5f4 aa3b
00000220: c700 3bbd ecb4 0b3c 5380 683b fbcd 3dbd
00000230: cf5d 16bc e1ef 753d e26d 87bc 7bf9 e73c
00000240: 4629 f9bc 74c6 7d3c b270 5abc 18eb a33c
00000250: 560a dfbc 1a90 4eba cba8 983c bf35 69bd
00000260: 33b6 27bc fe64 38bc 2bf4 48bb e88a 093d
00000270: 53db 683d 6fae 89bd 391f dcbc 46eb 8e3d
00000280: 18fc 2f3d 40a9 42bc 8a8b 2ebc 8005 89bd
00000290: af30 e8bc 971d d0bd 6d98 8f3c a2a3 fa3d
000002a0: b390 a9bd 4624 823a 6f75 2dbd 735d 9c3d
000002b0: 9b75 453d e9a6 abbc 93f9 b93d 0d28 0dbd
000002c0: 1b8e 9c3d 9d39 ab3c ccba 9d3d 8c05 cdbd
000002d0: 4e6c 793c ddf3 e8bc c39f afbd fc21 87bc
000002e0: 6922 793d c2bc d1bc e257 503c 2f00 873c
000002f0: 0055 6b3d 0885 58bd 24c5 e23c c2fb 7abd
00000300: c434 593d 1469 bf3d 634c eabd 62f1 fb3c
00000310: 6818 ba3d 27a3 773c 30bf f8bc 8ca1 c8bc
00000320: 5f3c 9bbd 2083 18bc 0b74 813d d91c 04bd
00000330: 69e2 febd 9400 1bbd 78a1 603d a084 8d3c
00000340: 68c3 423d 5297 8fbd b536 333d db1a 283d
00000350: 1b26 183c 58b6 1e3d cf8d b8bd 59ad 843d
00000360: 4369 5dbc 2945 b1bc 59aa 263d ba66 223e
00000370: d091 073e 1085 3d3d 90ae a1bd 9cf8 0abd
00000380: 0d61 73bc cb77 babd c151 3bbd c1c0 d1bc
00000390: 0f36 0e3b dded 0b3e 06ba 683d 90eb 6ebd
000003a0: bede bfbb 4fa9 fcbc 9fd5 4eba 9c8d 63ba
000003b0: 894a 24ba 3226 7eba 6536 85ba 3ac6 45ba
000003c0: b903 5cba b823 62ba 2f8d 09ba 4453 c0bc
000003d0: d6de 143d 6986 31bc 0440 8ebc f552 a2bb
000003e0: 062a 423c 83f8 79bd 7271 a4bc 5999 483d
000003f0: d4f9 67bd fba8 d03b 3a4a b5bc 5225 1bbd

encoder.6.bias f4 [16]
0.11158578 -0.044453774 -0.036134884 0.048324212 -0.13971053 -0.19745657 0.008539382 -0.06575493
-0.067752026 -0.37602347 -0.02237307 -0.4121117 -0.22252509 -0.14884678 0.22950508 -0.21228103
00000000: 1687 e43d 2915 36bd 2c02 14bd 9cef 453d
00000010: 4710 0fbe 0e32 4abe c4e8 0b3c 85aa 86bd
00000020: 93c1 8abd 2686 c0be ba47 b7bc 4e00 d3be
00000030: 9edd 63be 4a6b 18be 6103 6b3e 3360 59be
