shallow_dec_16_2000.pth (torch_old, 60215 bytes, 8 tensors)

decoder.0.weight f4 [16, 12, 3, 3]
-0.0069986107 0.051845625 0.019271525 6.79655e-40 -0.022505315 -1.142835e-39 -0.012217988 0.015232636
-0.018928558 -0.0022926854 0.01876617 -0.004526183 -0.055361956 -0.0017552158 0.02998379 -0.004135056
-0.025696889 0.0047749174 0.0059700147 -0.08555745 0.07352892 -0.026670614 0.054183405 0.059063554
0.035509717 -0.015291405 -0.064756684 0.072254814 -0.1348406 -0.025208093 -0.020934254 -0.07810363
-0.057368323 -0.046455026 -0.098409526 -0.077385955 0.008608645 -0.06456639 0.026153555 -0.0459244
-0.0041228523 0.11321802 0.06853743 -0.021557337 -0.073292255 0.001321405 0.019284412 0.06383483
-0.11864813 -0.02786082 0.0138778305 -0.014573658 -0.015641931 -0.0053614085 0.066361286 -0.09927085
0.059411697 0.00011789412 0.20027749 0.04780547 0.05636982 0.04230378 -0.0049889656 0.06723945
-0.0022022005 -0.04064736 0.041546483 -0.07021486 0.029515324 0.03653696 0.038877435 -0.14008921
0.008958921 -0.061435 -0.021384824 0.03628804 0.0825449 0.18359438 0.01699514 -0.03386977
0.014460905 -0.011673051 -0.063136555 0.028541215 0.07129489 0.03327844 0.05359392 -0.045665234
-0.05069461 -0.030403102 -0.03395017 0.0039312905 -0.070805304 -0.011711748 -0.0037122776 -0.042348985
-0.03664332 0.046145663 0.03399659 -0.036228213 -0.037630666 0.049716342 5.97159e-40 0.07751928
-9.41852e-40 0.06988822 -0.014555341 -0.0133076785 -0.060222425 -0.038210876 0.009597354 -2.75277e-40
0.04236555 -6.15484e-40 0.036579005 0.06259418 0.10300432 0.0011316835 -0.0051771025 -0.025351292
0.07970485 -0.018050024 -0.0005537304 0.021583263 -0.016427929 -0.013388337 -0.038677633 -0.06564589
0.075499125 -0.05614687 -0.045784157 -0.11072361 0.010063436 -0.055272087 0.010155038 -0.063736245
0.035745587 0.10333203 -0.003265813 -0.08298899 0.032688454 -0.058847725 -0.06402387 -0.06921743
-0.052926704 -0.0511283 -0.043199614 0.022047935 0.04262833 -0.03847761 0.010143895 -0.013557175
-0.034365024 0.0027555756 -0.014488919 -0.013435165 0.07564038 0.02106897 0.0120041035 -0.052927863
0.1708554 -0.14534345 -0.048093762 0.067124404 -0.011148655 -0.02891577 -0.3147497 -0.06110638
-0.017147418 0.07810592 -0.037655666 0.018554874 0.027815677 -0.002479644 0.004870185 0.061252937
-0.030043615 0.0012845389 0.08597411 -0.032781422 -0.0146836145 -0.07042262 -0.036038887 0.01333743
0.019156871 -0.047702067 -0.0121574225 0.08696211 -0.03612984 0.07131388 -0.20189549 0.094405524
0.02169086 -0.033498384 -0.072809614 0.03358612 0.022943713 -0.007392302 -0.050864935 0.08108929
-0.0077548884 -0.035433363 0.04539728 0.0014386398 -0.14485486 -0.030631727 -0.028902898 -0.06212051
-0.024792997 0.06980106 -3.2535e-40 -0.014739489 5.692e-42 0.06545088 -0.022889161 -0.15174595
-0.0069591724 -0.015363788 -0.045514174 -6.44693e-40 0.012807621 -3.0009e-40 -0.051678237 -0.039865382
-0.0042724134 -0.008902965 -0.04540939 -0.028061064 0.047428034 0.043709684 -0.0628387 -0.01642713
-0.002434498 0.045724835 -0.027166884 0.03482338 0.00016100038 0.053410094 0.016198572 0.11518347
0.05199771 -0.000529932 -0.011974625 -0.18181445 -0.22724077 -0.13503839 0.13501398 -0.011936309
-0.086856514 -0.017688736 0.05058848 0.033811696 -0.16424565 -0.08206803 -0.009400097 0.21636933
00000000: 9a54 e5bb 145c 543d 51df 9d3c 9a66 0700
00000010: 115d b8bc c271 0c80 f52d 48bc 4e92 793c
00000020: 1010 9bbc e140 16bb 83bb 993c 6050 94bb
00000030: 38c3 62bd 450f e6ba 91a0 f53c 5d7f 87bb
00000040: 4882 d2bc e976 9c3b 1da0 c33b bf38 afbd
00000050: 5596 963d 557c dabc 6bef 5d3d a0ec 713d
00000060: a372 113d cd88 7abc 279f 84bd 55fa 933d
00000070: a713 0abe 3481 cebc 507e abbc ccf4 9fbd
00000080: 0cfb 6abd a047 3ebd ef8a c9bd 877c 9ebd
00000090: 460b 0d3c 623b 84bd fb3f d63c 391b 3cbd
000000a0: fe18 87bb d9de e73d 5a5d 8c3d 0399 b0bc
000000b0: 401a 96bd ff32 ad3a 58fa 9d3c d6bb 823d
000000c0: cafd f2bd 603c e4bc d75f 633c 5ac6 6ebc
000000d0: 8223 80bc c1ae afbb 6de8 873d 844e cbbd
000000e0: ae59 733d ec3d f738 8b15 4d3e abcf 433d
000000f0: 0ae4 663d ba46 2d3d 7a7a a3bb d6b4 893d
00000100: cb52 10bb d97d 26bd a52c 2a3d cfcc 8fbd
00000110: 1fca f13c c8a7 153d f23d 1f3d 8c73 0fbe
00000120: 70c8 123c 44a3 7bbd 3a2f afbc c5a2 143d
00000130: 4d0d a93d 2a00 3c3e 6439 8b3c 07bb 0abd
00000140: 6fed 6c3c 5340 3fbc bd4d 81bd 44cf e93c
00000150: 0e03 923d f94e 083d 4c85 5b3d 780b 3bbd
00000160: 27a5 4fbd ed0f f9bc 550f 0bbd 0ed2 803b
00000170: 5f02 91bd a2e2 3fbc af49 73bb 2176 2dbd
00000180: 4e17 16bd 3c03 3d3d 0240 0b3d 0964 14bd
00000190: 9d22 1abd 5da3 4b3d a380 0600 6ec2 9e3d
000001a0: 8041 0a80 8e21 8f3d 8679 6ebc 7308 5abc
000001b0: caab 76bd 0283 1cbd 383e 1d3c 5cff 0280
000001c0: 8087 2d3d b8b3 0680 ded3 153d 6131 803d
000001d0: eef3 d23d ff54 943a afa4 a9bb 83ad cfbc
000001e0: 4c3c a33d a5dd 93bc 3828 11ba 62cf b03c
000001f0: dd93 86bc c15a 5bbc 706c 1ebd 5a71 86bd
00000200: 499f 9a3d 43fa 65bd 2b88 3bbd 0fc3 e2bd
00000210: 1ce1 243c fc64 62bd 5161 263c 2688 82bd
00000220: f769 123d be9f d33d 4007 56bb 22f6 a9bd
00000230: 54e4 053d 500a 71bd f21e 83bd dec1 8dbd
00000240: acc9 58bd e96b 51bd 14f2 30bd df9d b43c
00000250: 0b9b 2e3d b39a 1dbd 9432 263c ea1e 5ebc
00000260: 57c2 0cbd e396 343b ee62 6dbc 2b1f 5cbc
00000270: 58e9 9a3d d598 ac3c dcac 443c e3ca 58bd
00000280: b8f4 2e3e ead4 14be f7fd 44bd 8578 893d
00000290: d9a8 36bc c4e0 ecbc df26 a1be af4a 7abd
000002a0: be78 8cbc fff5 9f3d d43c 1abd 6400 983c
000002b0: b4dd e33c 8681 22bb 1396 9f3b 5ce4 7a3d
000002c0: 071e f6bc f95d a83a 3213 b03d d045 06bd
000002d0: 8b93 70bc bc39 90bd 839d 13bd 3c85 5a3c
000002e0: dfee 9c3c 3e63 43bd ed2f 47bc 3119 b23d
000002f0: e2fc 13bd 030d 923d b1bd 4ebe af57 c13d
00000300: 08b1 b13c 9a35 09bd 351d 95bd 9991 093d
00000310: 74f4 bb3c 203b f2bb c057 50bd 2412 a63d
00000320: b81c febb 9322 11bd 80f2 393d be90 bc3a
00000330: d554 14be 63ef fabc c5c5 ecbc 1372 7ebd
00000340: af1a cbbc dcf3 8e3d f28a 0380 e67d 71bc
00000350: de0f 0000 1c0b 863d 0d82 bbbc 4a63 1bbe
00000360: c509 e4bb 66b8 7bbc 126d 3abd 2405 0780
00000370: 0ed7 513c 8744 0380 8fac 53bd e249 23bd
00000380: 9aff 8bbb bedd 11bc 32ff 39bd 51e0 e5bc
00000390: e643 423d ed08 333d 94b1 80bd 3092 86bc
000003a0: 198c 1fbb f749 3b3d 168d debc f6a2 0e3d
000003b0: 36d2 2839 8bc4 5a3d deb2 843c 50e5 eb3d
000003c0: 8dfb 543d 22eb 0aba 3831 44bc 912d 3abe
000003d0: ceb1 68be 8147 0abe 1b41 0a3e 8290 43bc
000003e0: d4e1 b1bd f8e7 90bc de35 4f3d 227e 0a3d
000003f0: 0330 28be 4913 a8bd dd02 1abc ec8f 5d3e

decoder.0.bias f4 [12]
-0.029313054 -0.3186696 -0.082419425 0.045108285 0.16390096 0.1448858 0.010732827 -0.09772143
-0.088778086 0.041217744 0.13358404 -0.030705662
00000000: ee21 f0bc a928 a3be 84cb a8bd 77c3 383d
00000010: a7d5 273e f15c 143e bdd8 2f3c 2c22 c8bd
00000020: 49d1 b5bd f0d3 283d 41ca 083e 718a fbbc

decoder.2.weight f4 [12, 8, 7, 7]
0.007004754 0.0082645565 -0.013614454 -0.008057748 -0.020940775 -0.04426367 -0.06056423 -0.0020267582
0.0322569 -0.0023833876 -0.0048741335 0.0052868887 -0.024682138 -0.019633727 0.026883483 0.050119556
-0.024445578 0.051207487 0.042698186 -0.04059292 -0.07936143 -0.004323044 0.08098198 -0.0036619948
0.054721978 0.0043848106 -0.049270418 -0.046900928 0.033389863 0.027169676 0.03566224 0.068890855
-0.009736295 -0.041367177 -0.008296993 0.0148434965 0.0030754055 -0.015986716 0.007101026 -0.0234747
-0.015781129 -0.022684548 0.01505654 0.010371786 -0.020858584 0.0067662066 -0.021002825 0.011525116
-0.04170472 0.0402187 0.032107357 0.039339505 -0.027588597 0.002237875 -0.022257918 -0.029804517
-0.015794419 0.050167013 0.013337151 -0.0038925067 -0.044637177 -0.020561079 -0.023887591 0.032050025
0.067176454 0.044061027 0.02879489 0.036752004 -0.02157753 0.0044373455 0.067112744 0.0778611
0.04318253 0.02868865 0.0015323337 -0.03681518 0.021900304 0.010647271 0.054347675 0.028856648
0.04376063 -0.028477464 -0.013309825 0.020905687 0.007832314 0.0016420535 0.015371796 -0.03597246
-0.011701429 -0.04221454 -0.019806081 0.009905572 -0.010901419 -0.009311739 -0.029438633 0.021477008
-0.04775928 0.014607718 0.026731694 0.056429826 -0.014721474 -0.0375949 -0.05517276 -0.023173673
-0.043413546 0.005315107 0.026471162 0.038158067 -0.0038543479 0.029247321 -0.033036496 0.014458848
0.011030525 0.04363711 -0.01561129 -0.01409944 -0.09809844 -0.13579474 0.03677528 -0.06005557
0.044088863 0.061045498 -0.03506586 -0.119464904 -0.09527408 -0.025316719 0.047124036 0.104060605
0.0630765 0.030599236 -0.015852012 -0.09712199 -0.0484828 -0.052786365 0.0008972532 -0.011010711
0.011629953 -0.018968426 -0.025362551 0.011641102 -0.01062604 -0.09375026 -0.08970107 -0.027577857
-0.029805247 -0.06308259 -0.057286777 0.0044005173 0.0053483737 -0.012356432 -0.010877705 0.008488997
-0.00057532627 0.022437753 -0.037214376 -0.04713844 -0.045495078 0.012411524 0.049080774 0.041779548
-0.031143865 -0.043129794 0.0038891288 -0.08534745 -0.013780401 -0.05721651 -0.089619406 -0.021914102
-0.02245307 0.014099745 0.04256707 0.015392908 -0.00026407666 -0.048890486 -0.029696165 -0.002673791
0.018253831 0.071360834 0.058429535 0.021232741 0.009010889 0.013804014 -0.0056381817 0.009144293
-0.07721151 -0.009488415 -0.012966613 -0.041854296 0.02053691 0.0062041027 -0.021215055 -0.082305044
-0.029322168 -0.0010080781 -0.0017690876 -0.04957927 -0.010606538 -0.03387045 -0.0041419263 0.012538986
0.009524954 -0.0046304795 0.0039168396 -0.009866104 -0.0135237565 0.050342757 0.05964048 0.033609614
0.04153273 0.011684774 0.019762786 -0.0039437753 0.09202363 0.022836363 -0.062827155 -0.060357522
-0.035822105 0.010215026 0.011327842 0.094672255 0.020468034 -0.08604749 -0.006709463 0.044586577
0.019632222 0.039536696 0.098228894 0.060387697 0.0046538147 0.012677169 -0.050265934 -0.03656213
-0.04041637 -0.019248815 0.031826876 0.013122077 0.00024714525 0.05357379 0.037335683 0.020997273
0.0074759447 0.054663807 0.012236099 0.035374418 -0.03625204 -0.0068018925 0.0067864833 -0.0077040265
0.021689735 0.04587082 -0.027295 -0.010906093 -0.015454739 0.005127163 0.0047074943 0.009075945
00000000: 2388 e53b 1068 073c 290f 5fbc a504 04bc
00000010: fd8b abbc d24d 35bd 3312 78bd 5cd3 04bb
00000020: d01f 043d 9c32 1cbb 32b7 9fbb a33d ad3b
00000030: 3232 cabc e9d6 a0bc c03a dc3c 2a4a 4d3d
00000040: 1842 c8bc f1be 513d 4be4 2e3d c344 26bd
00000050: 3f88 a2bd 52a8 8dbb e1d9 a53d 14fe 6fbb
00000060: 2724 603d 75ae 8f3b c7cf 49bd 301b 40bd
00000070: cfc3 083d f192 de3c 9212 123d a616 8d3d
00000080: fb84 1fbc a170 29bd 1cf0 07bc 2332 733c
00000090: be8c 493b 93f6 82bc b9af e83b 044e c0bc
000000a0: 6d47 81bc f2d4 b9bc b5af 763c 6cee 293c
000000b0: 9fdf aabc 0eb7 dd3b 1e0e acbc d7d3 3c3c
000000c0: 92d2 2abd 5dbc 243d 0183 033d 7622 213d
000000d0: 7b01 e2bc 50a9 123b 3d56 b6bc 9a28 f4bc
000000e0: 4c63 81bc ed7b 4d3d 1184 5a3c 6d19 7fbb
000000f0: 79d5 36bd b56f a8bc e9af c3bc e346 033d
00000100: cf93 893d 5679 343d 43e3 eb3c 4589 163d
00000110: 5cc3 b0bc 2767 913b 6872 893d a475 9f3d
00000120: 2ae0 303d 7604 eb3c 96d8 c83a 84cb 16bd
00000130: 4468 b33c e471 2e3c ab9b 5e3d c764 ec3c
00000140: 593e 333d 9249 e9bc 7411 5abc 6742 ab3c
00000150: 1b53 003c 2c3a d73a fcd9 7b3c dc57 13bd
00000160: 5ab7 3fbc 27e9 2cbd 5d40 a2bc fb4a 223c
00000170: de9b 32bc 4490 18bc 4a29 f1bc 8df0 af3c
00000180: 3c9f 43bd 3655 6f3c 6dfc da3c f622 673d
00000190: 5632 71bc 1cfd 19bd d5fc 61bd b7d6 bdbc
000001a0: 67d2 31bd 592a ae3b 0dda d83c a24b 1c3d
000001b0: 3a99 7cbb 1498 ef3c 4751 07bd cee4 6c3c
000001c0: 60b9 343c d4bc 323d 7fc6 7fbc 5601 67bc
000001d0: d6e7 c8bd c70d 0bbe ada1 163d d4fc 75bd
000001e0: 8696 343d d80a 7a3d 38a1 0fbd 04aa f4bd
000001f0: 0f1f c3bd 0265 cfbc 2205 413d ba1d d53d
00000200: 412e 813d 40ab fa3c 14dc 81bc e5e7 c6bd
00000210: e795 46bd 8436 58bd a535 6b3a 4566 34bc
00000220: 8f8b 3e3c ac63 9bbc 20c5 cfbc 52ba 3e3c
00000230: d818 2ebc 2300 c0bd 32b5 b7bd f5ea e1bc
00000240: 222a f4bc 7231 81bd 8aa5 6abd 3732 903b
00000250: 6941 af3b a272 4abc 6738 32bc 6f15 0b3c
00000260: 7ed1 16ba 61cf b73c 1a6e 18bd 3d14 41bd
00000270: 0c59 3abd b459 4b3c ec08 493d 0821 2b3d
00000280: 6b21 ffbc dea8 30bd c1e0 7e3b a5ca aebd
00000290: 31c7 61bc dc5b 6abd 618a b7bd 3485 b3bc
000002a0: 80ef b7bc 9e02 673c cf5a 2e3d 8932 7c3c
000002b0: c573 8ab9 6441 48bd 5f45 f3bc c53a 2fbb
000002c0: 0f89 953c a125 923d cf53 6f3d 49f0 ad3c
000002d0: 68a2 133c 3b2a 623c 7fc0 b8bb f2d1 153c
000002e0: 1121 9ebd 4c75 1bbc eb71 54bc 696f 2bbd
000002f0: 063d a83c c94b cb3b 32cb adbc 8c8f a8bd
00000300: 0b35 f0bc 7d21 84ba bbe0 e7ba a213 4bbd
00000310: 0bc7 2dbc bebb 0abd ffb8 87bb 5270 4d3c
00000320: 8d0e 1c3c 47bb 97bb d558 803b 71a5 21bc
00000330: bf92 5dbc 3534 4e3d 9349 743d 3caa 093d
00000340: 391e 2a3d 7f71 3f3c 91e5 a13c c93a 81bb
00000350: e376 bc3d 5313 bb3c 86ab 80bd 7339 77bd
00000360: 33ba 12bd ed5c 273c 6a98 393c 87e3 c13d
00000370: 94ac a73c ab39 b0bd 0edb dbbb 6aa0 363d
00000380: c1d3 a03c 3bf1 213d 3b2c c93d 1759 773d
00000390: 077f 983b e7b3 4f3c a7e3 4dbd 2cc2 15bd
000003a0: a38b 25bd b1af 9dbc e65c 023d fbfd 563c
000003b0: 4693 8139 3170 5b3d 4ded 183d 7902 ac3c
000003c0: c5f8 f43b 28e7 5f3d eb79 483c c4e4 103d
000003d0: 057d 14bd 69e2 debb 2661 de3b 0f72 fcbb
000003e0: acae b13c 0ae3 3b3d c499 dfbc 78af 32bc
000003f0: e035 7dbc c301 a83b 5341 9a3b 46b3 143c

decoder.2.bias f4 [8]
-0.27949464 -0.022706663 0.021743832 0.009136567 0.060997877 -0.0044196094 -0.024696743 -0.015247569
00000000: ec19 8fbe 5303 babc 1f20 b23c 8ab1 153c
00000010: e9d8 793d 5fd2 90bb d350 cabc f1d0 79bc

decoder.4.weight f4 [8, 5, 11, 11]
3.18418e-40 1.2422e-40 1.896751e-39 6.14712e-40 -1.69978e-40 4.21191e-40 1.074077e-39 4.38242e-40
1.07152e-40 1.2029e-40 -4.1371e-40 -5.37083e-40 0.11575497 8.408e-42 0.13138644 -7.1151e-41
0.15568273 -1.3792e-40 0.15890762 6.18706e-40 0.0786501 4.88372e-40 -2.11384e-40 -1.072163e-39
5.685e-42 1.69571e-40 -2.52985e-40 5.59243e-40 -5.52622e-40 -5.95805e-40 -1.270182e-39 -2.726e-40
-4.87231e-40 -1.52823e-40 0.1509337 5.97004e-40 0.21303628 2.86538e-40 0.24090809 1.96497e-40
0.2022984 3.97568e-40 0.1556811 3.6851e-41 -6.33364e-40 4.41415e-40 -1.519675e-39 3.79844e-40
1.59584e-40 1.16877e-40 1.532575e-39 -5.17666e-40 4.62029e-40 -3.7811e-41 9.31471e-40 -1.73292e-40
0.23274979 1.31127e-40 0.29387936 6.01222e-40 0.30981547 -5.53207e-40 0.29924023 2.9269e-40
0.17901208 -2.0093e-41 -3.9979e-40 -1.780406e-39 9.6464e-41 3.30464e-40 -3.985e-40 3.22505e-40
1.4196e-40 -1.897376e-39 3.224e-41 -5.08723e-40 -2.8029e-40 -9.2141e-41 0.21272895 -4.5919e-40
0.3275579 6.4002e-41 0.3401626 3.84086e-40 0.30193627 8.08094e-40 0.19531293 -3.8268e-40
-6.60813e-40 7.65445e-40 1.3395e-41 -5.5489e-41 -6.25852e-40 2.45877e-40 3.98089e-40 1.14018e-40
-9.97587e-40 -8.08185e-40 -1.278304e-39 4.1179e-40 0.13713163 -2.19533e-40 0.17390583 -6.5756e-41
0.20529075 -8.5918e-41 0.1912403 9.30906e-40 0.09017875 -5.854e-40 -3.22751e-40 8.9431e-41
-2.19333e-40 5.96101e-40 -2.20388e-40 6.2872e-40 2.89274e-40 3.087e-41 1.73737e-40 1.764458e-39
-1.4171e-41 0.06318287 0.042473618 0.042808436 0.03957114 0.09171171 0.09059659 0.12605025
0.057159897 0.058590695 0.035026092 0.041179016 0.009520962 0.0482587 0.020200659 0.11086355
0.016074814 0.10928537 0.012396117 0.17345296 0.041174404 0.07807601 0.036078062 0.074364364
0.017692506 0.16740543 0.029303363 0.14089718 -0.018132307 0.14325279 0.015040376 0.09021068
-0.017238842 0.09854955 -0.020810936 0.051107954 0.051535796 0.11791469 0.045052987 0.23225376
0.059815466 0.22121938 0.055996202 0.10181193 0.004708753 0.07626206 0.045342743 0.17827852
0.07842404 0.22860779 0.07987113 0.24555282 0.14824353 0.1597955 -0.02676914 0.07620736
0.040252198 0.120602176 0.04578105 0.24860652 0.11875173 0.26763937 0.16885753 0.34544346
0.0429917 0.17973436 0.051956277 0.124407806 0.04247752 0.2241729 0.069740966 0.23085962
0.09484007 0.20504846 0.08861993 0.16061155 0.056020036 0.15727548 0.011746861 0.12351262
0.059337456 0.1925862 0.083406776 0.17122568 0.06300891 0.22212613 0.062314145 0.13102056
0.060123112 0.05995302 0.034184847 0.1385787 0.060618676 0.1433937 0.09068199 0.1544598
0.056320958 0.076042354 0.026046705 0.03862505 0.006969862 0.08359856 0.06156558 0.16863221
0.06300947 0.16137792 0.11394221 0.17911029 0.04577978 0.10937604 0.010567243 0.054919183
0.018643225 0.087548144 0.06967741 0.13119006 0.06570771 0.14692198 0.122310534 0.12614903
0.025887871 0.037410714 -0.0032601357 0.011411268 -0.020911707 0.023461763 0.012106404 0.03235968
0.0075237784 0.00796543 -0.009453396 -0.008695513 0.016827932 0.010512284 -0.006009366 -0.0060980166
00000000: 9f77 0300 465a 0100 5fa7 1400 91b1 0600
00000010: d4d9 0180 1c96 0400 17b2 0b00 a4c5 0400
00000020: b22a 0100 524f 0100 4181 0480 2bd9 0580
00000030: f110 ed3d 7017 0000 2b8a 063e 57c6 0080
00000040: 4b6b 1f3e 7780 0180 aeb8 223e b3bc 0600
00000050: 4e13 a13d 6251 0500 414d 0280 c1ac 0b80
00000060: d90f 0000 b2d8 0100 38c1 0280 f116 0600
00000070: 7c04 0680 dd7c 0680 c0d4 0d80 e6f7 0280
00000080: 344e 0580 02aa 0180 5d8e 1a3e 3480 0600
00000090: 2f26 5a3e c01e 0300 9cb0 763e c123 0200
000000a0: 5027 4f3e 4254 0400 de6a 1f3e ba66 0000
000000b0: 90e5 0680 7cce 0400 3c8c 1080 da22 0400
000000c0: dbbc 0100 ce45 0100 32b0 1000 0ba3 0580
000000d0: f307 0500 6769 0080 9024 0a00 11e3 0180
000000e0: f655 6e3e 876d 0100 5b77 963e f68b 0600
000000f0: 22a0 9e3e 1e06 0680 0436 993e e72f 0300
00000100: f14e 373e 0338 0080 745a 0480 0c63 1380
00000110: e70c 0100 3399 0300 db56 0480 0383 0300
00000120: ba8b 0100 1da9 1480 df59 0000 1d8a 0580
00000130: 560d 0380 da00 0180 9ed5 593e 0900 0580
00000140: abb5 a73e 69b2 0000 cb29 ae3e ad2e 0400
00000150: 6497 9a3e a3cc 0800 1d00 483e c22a 0480
00000160: 1432 0780 c055 0800 5725 0000 ae9a 0080
00000170: 9fd0 0680 68ad 0200 b655 0400 d63d 0100
00000180: dedc 0a80 e4cc 0880 64eb 0d80 e77b 0400
00000190: 3c6c 0c3e f863 0280 5f14 323e 4db7 0080
000001a0: bd37 523e 81ef 0080 7fd4 433e fd22 0a00
000001b0: a3af b83d db5f 0680 b383 0380 4cf9 0000
000001c0: 6963 0280 b07d 0600 5a66 0280 9ed8 0600
000001d0: 6126 0300 0e56 0000 4fe4 0100 9736 1300
000001e0: 8127 0080 0566 813d d1f8 2d3d e657 2f3d
000001f0: 5915 223d 59d3 bb3d b48a b93d 5113 013e
00000200: 7f20 6a3d ccfc 6f3d 8577 0f3d 54ab 283d
00000210: cffd 1b3c eaaa 453d da7b a53c 6e0c e33d
00000220: 54af 833c 02d1 df3d 1519 4b3c a79d 313e
00000230: 7ea6 283d 51e6 9f3d 97c6 133d 584c 983d
00000240: e0ef 903c 546c 2b3e 9b0d f03c 5a47 103e
00000250: 348a 94bc dcb0 123e e96b 763c 61c0 b83d
00000260: 7938 8dbc 59d4 c93d b27b aabc 9356 513d
00000270: 3317 533d 427d f13d 7b89 383d eed3 6d3e
00000280: 1001 753d 5587 623e 465c 653d c682 d03d
00000290: e24b 9a3b 482f 9c3d 50b9 393d a58e 363e
000002a0: c89c a03d 2918 6a3e 7a93 a33d 3372 7b3e
000002b0: 27cd 173e 6ea1 233e f54a dbbc 9b12 9c3d
000002c0: 7ddf 243d 46fe f63d e984 3b3d b592 7e3e
000002d0: 1b34 f33d 0708 893e fde8 2c3e f7dd b03e
000002e0: 1118 303d 490c 383e 1bd0 543d 85c9 fe3d
000002f0: e8fc 2d3d 958d 653e 5ad4 8e3d 7766 6c3e
00000300: 833b c23d 39f8 513e 5e7e b53d 5b77 243e
00000310: 4475 653d d30c 213e e875 403c 2ff4 fc3d
00000320: d50b 733d 5135 453e 2cd1 aa3d c955 2f3e
00000330: d10a 813d 0875 633e 1e3d 7f3d 412a 063e
00000340: a743 763d 4c91 753d 6905 0c3d 93e7 0d3e
00000350: 4a4b 783d ccd5 123e 7bb7 b93d b62a 1e3e
00000360: ceb0 663d 18bc 9b3d e65f d53c 4d35 1e3d
00000370: 7163 e43b b935 ab3d 312c 7c3d ecad 2c3e
00000380: 1c0b 813d 4140 253e 895a e93d b068 373e
00000390: 9483 3b3d 8c00 e03d 3b22 2d3c f0f2 603d
000003a0: adb9 983c 714c b33d 08b3 8e3d b056 063e
000003b0: c491 863d b772 163e f27d fa3d 362d 013e
000003c0: cd12 d43c fa3b 193d 00a8 55bb 54f6 3a3c
000003d0: 074f abbc e232 c03c f059 463c 958b 043d
000003e0: 078a f63b 6f81 023c 6be2 1abc a077 0ebc
000003f0: bbda 893c b73b 2c3c 37ea c4bb dfd1 c7bb

decoder.4.bias f4 [5]
-0.10723277 -0.02518057 -0.005407144 -0.016002955 -0.057941657
00000000: db9c dbbd 7c47 cebc 692e b1bb a118 83bc
00000010: 3b54 6dbd

decoder.6.weight f4 [5, 3, 15, 15]
0.018313011 0.022147648 0.013078939 0.011601871 -0.012661855 -0.014726597 -0.049847532 -0.056393493
-0.065378204 -0.0482999 0.002833028 -0.014039736 -0.012698707 -0.007586454 -0.023764126 0.021871343
0.012954139 0.014071288 0.0071893567 -0.006204534 -0.013996806 -0.05807205 -0.07982298 -0.08604095
-0.05868235 -0.0083594285 -0.013279031 -0.02220102 -0.016092412 -0.028376415 0.007105385 0.015503264
0.019278966 0.0147631215 0.0043050214 0.00022497278 -0.059325416 -0.07219889 -0.07297479 -0.060364675
0.005313665 -0.022800034 -0.026149387 -0.025488658 -0.031046595 -0.016670477 -0.016612168 -0.0026069717
0.00091767625 -0.0051917587 -0.00034117716 -0.058206562 -0.08346816 -0.083849624 -0.0701004 0.010292779
-0.040318627 -0.042295128 -0.053216107 -0.072472885 0.014951529 0.004893014 0.028256034 0.039058283
0.04795881 0.060996592 0.009869394 -0.0004506182 -0.004630445 0.004391296 0.0805143 0.019708715
0.0062746857 -0.024250094 -0.04009672 0.006791759 0.006853528 0.026117083 0.0483202 0.05102255
0.061107237 0.022441171 0.004737725 0.009531642 0.03710843 0.11112127 0.03961654 0.030521207
-0.0112621775 -0.052139577 0.00129208 -0.0034486437 0.018078351 0.044172432 0.04987913 0.060136996
0.01413649 -0.0047468264 0.00059348095 0.036253404 0.11329304 0.04513166 0.022617714 -0.013212194
-0.052043952 0.05104713 0.045841623 0.0748588 0.09703501 0.10058389 0.10674688 0.011967343
0.034160048 0.029639633 0.07401892 0.19233377 0.10563559 0.081050895 0.024655215 -0.022310305
-0.040810436 -0.038374156 -0.029938797 0.0073971995 0.018007003 0.02161082 -0.041350517 -0.069008924
-0.033430755 -0.005729049 0.07773526 -0.0023937954 -7.468815e-05 -0.050991453 -0.08349233 -0.039843846
-0.04219721 -0.033550624 0.0024540804 0.010092484 0.01925467 -0.046368062 -0.07035777 -0.04135458
-0.012335148 0.069351256 0.0015892197 -0.01651846 -0.053425703 -0.07764253 -0.048027698 -0.048697256
-0.029649254 -0.0031065159 0.012118871 0.014441426 -0.04464433 -0.07672039 -0.03702374 -0.022823922
0.059742678 -0.0140200425 -0.01343936 -0.055379942 -0.09047087 -0.04400352 -0.046744592 -0.042448916
-0.015272623 -0.018875664 -0.008716886 -0.06251942 -0.11140159 -0.0792181 -0.05922481 0.018625453
-0.026402045 -0.028300386 -0.058659013 -0.074750744 0.008027444 -0.005204535 0.003952303 0.020240664
0.01658848 0.017835628 -0.032397762 -0.05314951 -0.05618545 -0.024464874 0.048429053 0.00059620437
-0.0087296255 -0.023198329 -0.042507518 0.020485898 0.0013047665 0.008309884 0.017093651 -0.00512257
0.003170272 -0.041008692 -0.05165994 -0.044097345 -0.032129556 0.038292456 0.005583026 0.014900108
-0.004731886 -0.017148245 0.037522357 0.011835859 0.014181576 0.017741388 -0.004360085 0.008468097
-0.032257374 -0.041985765 -0.057455767 -0.034984905 0.027852772 0.017525753 0.018390384 0.0031850433
-0.009081254 -0.0045178714 -0.004349112 -0.021938577 -0.02377763 -0.019120976 -0.0027813513 -0.044892
-0.04215655 -0.036471527 -0.030747516 0.042226944 -0.009899582 -0.015943889 -0.024692072 -0.035911493
-0.012091312 -0.014277726 -0.019051153 -0.018045954 -0.023813434 -0.01037096 -0.056660414 -0.055842277
-0.04776044 -0.035757482 0.035049528 -0.01887124 -0.013930626 -0.035419878 -0.04034646 -0.009052705
00000000: 2b05 963c fc6e b53c 0c49 563c c615 3e3c
00000010: ab73 4fbc d347 71bc ed2c 4cbd ddfc 66bd
00000020: 02e5 85bd 1ed6 45bd 53aa 393b ec06 66bc
00000030: 3d0e 50bc ca97 f8bb fcac c2bc 882b b33c
00000040: 993d 543c 428b 663c b294 eb3b 674f cbbb
00000050: dc52 65bc f5dc 6dbd 3b7a a3bd 3d36 b0bd
00000060: e75c 70bd fcf5 08bc 4b90 59bc eade b5bc
00000070: 3cd4 83bc a875 e8bc 4ad4 e83b 6701 7e3c
00000080: ecee 9d3c 05e1 713c 2311 8d3b ace6 6b39
00000090: 35ff 72bd 03dd 93bd cf73 95bd f340 77bd
000000a0: 411e ae3b 23c7 babc 3d37 d6bc 97cd d0bc
000000b0: 6e55 febc 8690 88bc 3e16 88bc bad9 2abb
000000c0: 3690 703a a11f aabb 06e0 b2b9 016a 6ebd
000000d0: 5bf1 aabd 5ab9 abbd cc90 8fbd 0ba3 283c
000000e0: 2525 25bd a83d 2dbd 22f9 59bd aa6c 94bd
000000f0: 42f7 743c 9455 a03b 3379 e73c 94fb 1f3d
00000100: 7570 443d 90d7 793d 3db3 213c f340 ecb9
00000110: fdba 97bb dce4 8f3b aee4 a43d 2c74 a13c
00000120: e19b cd3b 22a8 c6bc 753c 24bd 678d de3b
00000130: 8f93 e03b 7ef3 d53c 67eb 453d 05fd 503d
00000140: 954b 7a3d 8cd6 b73c eb3e 9b3b 9b2a 1c3c
00000150: 02ff 173d 8c93 e33d f444 223d 9c07 fa3c
00000160: ff84 38bc 4f90 55bd 035b a93a a402 62bb
00000170: 0d19 943c 27ee 343d 0f4e 4c3d 3652 763d
00000180: bd9c 673c 448b 9bbb d593 1b3a 737e 143d
00000190: 2e06 e83d fadb 383d c948 b93c f577 58bc
000001a0: 0a2c 55bd cc16 513d 6dc4 3b3d 924f 993d
000001b0: 4bba c63d edfe cd3d 1c9e da3d ad12 443c
000001c0: 68eb 0b3d d1ce f23c 3b97 973d 25f3 443e
000001d0: 7957 d83d 03fe a53d bcf9 c93c 1ac4 b6bc
000001e0: d828 27bd 382e 1dbd 3542 f5bc 3564 f23b
000001f0: 6c83 933c 2d09 b13c 295f 29bd 8d54 8dbd
00000200: b0ee 08bd bfba bbbb aa33 9f3d 39e1 1cbb
00000210: e5a1 9cb8 6adc 50bd 07fe aabd 4d33 23bd
00000220: fbd6 2cbd 616c 09bd a3d4 203b f25a 253c
00000230: f8bb 9d3c 70ec 3dbd bc17 90bd 6c63 29bd
00000240: 5c19 4abc 0808 8e3d 5d4d d03a b951 87bc
00000250: e9d4 5abd 0c03 9fbd b1b8 44bd c676 47bd
00000260: fee2 f2bc b096 4bbb 3b8e 463c bb9b 6c3c
00000270: f9dc 36bd 941f 9dbd 35a6 17bd 3cf9 babc
00000280: bdb4 743d 52b4 65bc c330 5cbc 14d6 62bd
00000290: cb48 b9bd 093d 34bd 4277 3fbd eade 2dbd
000002a0: 063a 7abc 23a1 9abc 45d1 0ebc 2f0a 80bd
000002b0: 8426 e4bd 193d a2bd b795 72bd 6894 983c
000002c0: 1a49 d8bc 36d6 e7bc 6f44 70bd eb16 99bd
000002d0: 8a85 033c ce8a aabb 5282 813b c0cf a53c
000002e0: 90e4 873c 061c 923c 84b3 04bd 4db3 59bd
000002f0: b722 66bd 8f6a c8bc 8b5d 463d 994a 1c3a
00000300: b406 0fbc 6c0a bebc 5d1c 2ebd 0bd2 a73c
00000310: b304 ab3a 2e26 083c fc07 8c3c 3bdb a7bb
00000320: 57c4 4f3b bbf8 27bd 6099 53bd 6b9f 34bd
00000330: 489a 03bd 8dd8 1c3d d1f1 b63b 951f 743c
00000340: f00d 9bbb 7a7a 8cbc 0bb1 193d 31eb 413c
00000350: d759 683c 6356 913c 0bdf 8ebb c6bd 0a3c
00000360: 4f20 04bd 44f9 2bbd bd56 6bbd 554c 0fbd
00000370: 7f2b e43c 2b92 8f3c 6ea7 963c 29bc 503b
00000380: 8ac9 14bc a70a 94bb ff82 8ebb 88b8 b3bc
00000390: 4ec9 c2bc 98a3 9cbc 5547 36bb ace0 37bd
000003a0: 59ac 2cbd 2b63 15bd 37e2 fbbc 29f6 2c3d
000003b0: db31 22bc c29c 82bc 0747 cabc ee17 13bd
000003c0: a31a 46bc 20ed 69bc 2a11 9cbc 1cd5 93bc
000003d0: 6414 c3bc f6ea 29bc c014 68bd dfba 64bd
000003e0: 73a0 43bd 7076 12bd 1890 0f3d dc97 9abc
000003f0: 483d 64bc 6f14 11bd 5442 25bd cc51 14bc

decoder.6.bias f4 [3]
-0.00502211 -0.0018168056 -0.0007745762
00000000: 8390 a4bb e121 eeba ee0c 4bba
